15
10
32
79
137
226
266
604
878
807
3594
1380
1311
851
522
176
157
69
63
21
0
12027
12027
____________________________________________________________________________________________________
Layer (type)                     Output Shape          Param #     Connected to                     
====================================================================================================
convolution2d_1 (Convolution2D)  (None, 90, 320, 1)    2           convolution2d_input_1[0][0]      
____________________________________________________________________________________________________
convolution2d_2 (Convolution2D)  (None, 83, 313, 24)   1560        convolution2d_1[0][0]            
____________________________________________________________________________________________________
maxpooling2d_1 (MaxPooling2D)    (None, 41, 156, 24)   0           convolution2d_2[0][0]            
____________________________________________________________________________________________________
dropout_1 (Dropout)              (None, 41, 156, 24)   0           maxpooling2d_1[0][0]             
____________________________________________________________________________________________________
convolution2d_3 (Convolution2D)  (None, 37, 152, 36)   21636       dropout_1[0][0]                  
____________________________________________________________________________________________________
maxpooling2d_2 (MaxPooling2D)    (None, 18, 76, 36)    0           convolution2d_3[0][0]            
____________________________________________________________________________________________________
dropout_2 (Dropout)              (None, 18, 76, 36)    0           maxpooling2d_2[0][0]             
____________________________________________________________________________________________________
convolution2d_4 (Convolution2D)  (None, 16, 74, 48)    15600       dropout_2[0][0]                  
____________________________________________________________________________________________________
maxpooling2d_3 (MaxPooling2D)    (None, 8, 37, 48)     0           convolution2d_4[0][0]            
____________________________________________________________________________________________________
dropout_3 (Dropout)              (None, 8, 37, 48)     0           maxpooling2d_3[0][0]             
____________________________________________________________________________________________________
convolution2d_5 (Convolution2D)  (None, 6, 35, 64)     27712       dropout_3[0][0]                  
____________________________________________________________________________________________________
maxpooling2d_4 (MaxPooling2D)    (None, 3, 17, 64)     0           convolution2d_5[0][0]            
____________________________________________________________________________________________________
dropout_4 (Dropout)              (None, 3, 17, 64)     0           maxpooling2d_4[0][0]             
____________________________________________________________________________________________________
flatten_1 (Flatten)              (None, 3264)          0           dropout_4[0][0]                  
____________________________________________________________________________________________________
dense_1 (Dense)                  (None, 1024)          3343360     flatten_1[0][0]                  
____________________________________________________________________________________________________
dense_2 (Dense)                  (None, 512)           524800      dense_1[0][0]                    
____________________________________________________________________________________________________
dense_3 (Dense)                  (None, 256)           131328      dense_2[0][0]                    
____________________________________________________________________________________________________
dense_4 (Dense)                  (None, 128)           32896       dense_3[0][0]                    
____________________________________________________________________________________________________
dense_5 (Dense)                  (None, 64)            8256        dense_4[0][0]                    
____________________________________________________________________________________________________
dense_6 (Dense)                  (None, 32)            2080        dense_5[0][0]                    
____________________________________________________________________________________________________
dense_7 (Dense)                  (None, 1)             33          dense_6[0][0]                    
====================================================================================================
Total params: 4109263
____________________________________________________________________________________________________
Train on 9621 samples, validate on 2406 samples
Epoch 1/25
  40/9621 [..............................] - ETA: 618s - loss: 0.0941
…
